
Model loaded from checkpoint.
----------------------------------------------------------------
        Layer (type)               Output Shape         Param #
================================================================
            Conv2d-1         [-1, 64, 128, 128]           1,792
              ReLU-2         [-1, 64, 128, 128]               0
            Conv2d-3         [-1, 64, 128, 128]          36,928
              ReLU-4         [-1, 64, 128, 128]               0
         MaxPool2d-5           [-1, 64, 64, 64]               0
            Conv2d-6          [-1, 128, 64, 64]          73,856
              ReLU-7          [-1, 128, 64, 64]               0
            Conv2d-8          [-1, 128, 64, 64]         147,584
              ReLU-9          [-1, 128, 64, 64]               0
        MaxPool2d-10          [-1, 128, 32, 32]               0
           Conv2d-11          [-1, 256, 32, 32]         295,168
             ReLU-12          [-1, 256, 32, 32]               0
           Conv2d-13          [-1, 256, 32, 32]         590,080
             ReLU-14          [-1, 256, 32, 32]               0
           Conv2d-15          [-1, 256, 32, 32]         590,080
             ReLU-16          [-1, 256, 32, 32]               0
        MaxPool2d-17          [-1, 256, 16, 16]               0
           Conv2d-18          [-1, 512, 16, 16]       1,180,160
             ReLU-19          [-1, 512, 16, 16]               0
           Conv2d-20          [-1, 512, 16, 16]       2,359,808
             ReLU-21          [-1, 512, 16, 16]               0
           Conv2d-22          [-1, 512, 16, 16]       2,359,808
             ReLU-23          [-1, 512, 16, 16]               0
        MaxPool2d-24            [-1, 512, 8, 8]               0
           Conv2d-25            [-1, 512, 8, 8]       2,359,808
             ReLU-26            [-1, 512, 8, 8]               0
           Conv2d-27            [-1, 512, 8, 8]       2,359,808
             ReLU-28            [-1, 512, 8, 8]               0
           Conv2d-29            [-1, 512, 8, 8]       2,359,808
             ReLU-30            [-1, 512, 8, 8]               0
AdaptiveAvgPool2d-31            [-1, 512, 7, 7]               0
           Linear-32                    [-1, 4]         100,356
================================================================
Total params: 14,815,044
Trainable params: 100,356
Non-trainable params: 14,714,688
----------------------------------------------------------------
Input size (MB): 0.19
Forward/backward pass size (MB): 71.44
Params size (MB): 56.51
Estimated Total Size (MB): 128.14
----------------------------------------------------------------
----------------------------------------------------------------
        Layer (type)               Output Shape         Param #
================================================================
            Conv2d-1          [-1, 3, 128, 128]              84
              ReLU-2          [-1, 3, 128, 128]               0
            Conv2d-3          [-1, 3, 128, 128]              84
              ReLU-4          [-1, 3, 128, 128]               0
         MaxPool2d-5            [-1, 3, 64, 64]               0
            Conv2d-6            [-1, 3, 64, 64]              84
              ReLU-7            [-1, 3, 64, 64]               0
            Conv2d-8            [-1, 3, 64, 64]              84
              ReLU-9            [-1, 3, 64, 64]               0
        MaxPool2d-10            [-1, 3, 32, 32]               0
          Flatten-11                 [-1, 3072]               0
           Linear-12                    [-1, 4]          12,292
================================================================
Total params: 12,628
Trainable params: 12,628
Non-trainable params: 0
----------------------------------------------------------------
Input size (MB): 0.19
Forward/backward pass size (MB): 2.02
Params size (MB): 0.05
Estimated Total Size (MB): 2.25
----------------------------------------------------------------


Teacher Model : Test loss: 0.1318, Test acc: 95.43%
…
