…
/ext3/miniconda3/lib/python3.12/site-packages/torchvision/models/_utils.py:223: UserWarning: Arguments other than a weight enum or `None` for 'weights' are deprecated since 0.13 and may be removed in the future. The current behavior is equivalent to passing `weights=VGG16_Weights.IMAGENET1K_V1`. You can also use `weights=VGG16_Weights.DEFAULT` to get the most up-to-date weights.
  warnings.warn(msg)
['glioma', 'meningioma', 'notumor', 'pituitary']
['glioma', 'meningioma', 'notumor', 'pituitary']
4
----------------------------------------------------------------
        Layer (type)               Output Shape         Param #
================================================================
            Conv2d-1          [-1, 3, 128, 128]              84
              ReLU-2          [-1, 3, 128, 128]               0
            Conv2d-3          [-1, 3, 128, 128]              84
              ReLU-4          [-1, 3, 128, 128]               0
         MaxPool2d-5            [-1, 3, 64, 64]               0
            Conv2d-6            [-1, 3, 64, 64]              84
              ReLU-7            [-1, 3, 64, 64]               0
            Conv2d-8            [-1, 3, 64, 64]              84
              ReLU-9            [-1, 3, 64, 64]               0
        MaxPool2d-10            [-1, 3, 32, 32]               0
          Flatten-11                 [-1, 3072]               0
           Linear-12                    [-1, 4]          12,292
================================================================
Total params: 12,628
Trainable params: 12,628
Non-trainable params: 0
----------------------------------------------------------------
Input size (MB): 0.19
Forward/backward pass size (MB): 2.02
Params size (MB): 0.05
Estimated Total Size (MB): 2.25
----------------------------------------------------------------
  0%|          | 0
…
